mind-1-7.eth
job starting
Initializing Training Process..
Batch size per GPU : 2
Generator(
  (first_conv): Conv1d(1, 128, kernel_size=(3,), stride=(1,), padding=(1,), bias=False)
  (conv_layers): ModuleList(
    (0): ResidualConv1dGLU(
      (conv): Conv1d(128, 128, kernel_size=(3,), stride=(1,), padding=(1,), bias=False)
      (conv1x1_out): Conv1d(64, 128, kernel_size=(1,), stride=(1,), bias=False)
      (conv1x1_skip): Conv1d(64, 128, kernel_size=(1,), stride=(1,), bias=False)
    )
    (1): ResidualConv1dGLU(
      (conv): Conv1d(128, 128, kernel_size=(3,), stride=(1,), padding=(2,), dilation=(2,), bias=False)
      (conv1x1_out): Conv1d(64, 128, kernel_size=(1,), stride=(1,), bias=False)
      (conv1x1_skip): Conv1d(64, 128, kernel_size=(1,), stride=(1,), bias=False)
    )
    (2): ResidualConv1dGLU(
      (conv): Conv1d(128, 128, kernel_size=(3,), stride=(1,), padding=(4,), dilation=(4,), bias=False)
      (conv1x1_out): Conv1d(64, 128, kernel_size=(1,), stride=(1,), bias=False)
      (conv1x1_skip): Conv1d(64, 128, kernel_size=(1,), stride=(1,), bias=False)
    )
    (3): ResidualConv1dGLU(
      (conv): Conv1d(128, 128, kernel_size=(3,), stride=(1,), padding=(8,), dilation=(8,), bias=False)
      (conv1x1_out): Conv1d(64, 128, kernel_size=(1,), stride=(1,), bias=False)
      (conv1x1_skip): Conv1d(64, 128, kernel_size=(1,), stride=(1,), bias=False)
    )
    (4): ResidualConv1dGLU(
      (conv): Conv1d(128, 128, kernel_size=(3,), stride=(1,), padding=(16,), dilation=(16,), bias=False)
      (conv1x1_out): Conv1d(64, 128, kernel_size=(1,), stride=(1,), bias=False)
      (conv1x1_skip): Conv1d(64, 128, kernel_size=(1,), stride=(1,), bias=False)
    )
    (5): ResidualConv1dGLU(
      (conv): Conv1d(128, 128, kernel_size=(3,), stride=(1,), padding=(32,), dilation=(32,), bias=False)
      (conv1x1_out): Conv1d(64, 128, kernel_size=(1,), stride=(1,), bias=False)
      (conv1x1_skip): Conv1d(64, 128, kernel_size=(1,), stride=(1,), bias=False)
    )
    (6): ResidualConv1dGLU(
      (conv): Conv1d(128, 128, kernel_size=(3,), stride=(1,), padding=(64,), dilation=(64,), bias=False)
      (conv1x1_out): Conv1d(64, 128, kernel_size=(1,), stride=(1,), bias=False)
      (conv1x1_skip): Conv1d(64, 128, kernel_size=(1,), stride=(1,), bias=False)
    )
    (7): ResidualConv1dGLU(
      (conv): Conv1d(128, 128, kernel_size=(3,), stride=(1,), padding=(128,), dilation=(128,), bias=False)
      (conv1x1_out): Conv1d(64, 128, kernel_size=(1,), stride=(1,), bias=False)
      (conv1x1_skip): Conv1d(64, 128, kernel_size=(1,), stride=(1,), bias=False)
    )
    (8): ResidualConv1dGLU(
      (conv): Conv1d(128, 128, kernel_size=(3,), stride=(1,), padding=(256,), dilation=(256,), bias=False)
      (conv1x1_out): Conv1d(64, 128, kernel_size=(1,), stride=(1,), bias=False)
      (conv1x1_skip): Conv1d(64, 128, kernel_size=(1,), stride=(1,), bias=False)
    )
    (9): ResidualConv1dGLU(
      (conv): Conv1d(128, 128, kernel_size=(3,), stride=(1,), padding=(512,), dilation=(512,), bias=False)
      (conv1x1_out): Conv1d(64, 128, kernel_size=(1,), stride=(1,), bias=False)
      (conv1x1_skip): Conv1d(64, 128, kernel_size=(1,), stride=(1,), bias=False)
    )
    (10): ResidualConv1dGLU(
      (conv): Conv1d(128, 128, kernel_size=(3,), stride=(1,), padding=(1,), bias=False)
      (conv1x1_out): Conv1d(64, 128, kernel_size=(1,), stride=(1,), bias=False)
      (conv1x1_skip): Conv1d(64, 128, kernel_size=(1,), stride=(1,), bias=False)
    )
    (11): ResidualConv1dGLU(
      (conv): Conv1d(128, 128, kernel_size=(3,), stride=(1,), padding=(2,), dilation=(2,), bias=False)
      (conv1x1_out): Conv1d(64, 128, kernel_size=(1,), stride=(1,), bias=False)
      (conv1x1_skip): Conv1d(64, 128, kernel_size=(1,), stride=(1,), bias=False)
    )
    (12): ResidualConv1dGLU(
      (conv): Conv1d(128, 128, kernel_size=(3,), stride=(1,), padding=(4,), dilation=(4,), bias=False)
      (conv1x1_out): Conv1d(64, 128, kernel_size=(1,), stride=(1,), bias=False)
      (conv1x1_skip): Conv1d(64, 128, kernel_size=(1,), stride=(1,), bias=False)
    )
    (13): ResidualConv1dGLU(
      (conv): Conv1d(128, 128, kernel_size=(3,), stride=(1,), padding=(8,), dilation=(8,), bias=False)
      (conv1x1_out): Conv1d(64, 128, kernel_size=(1,), stride=(1,), bias=False)
      (conv1x1_skip): Conv1d(64, 128, kernel_size=(1,), stride=(1,), bias=False)
    )
    (14): ResidualConv1dGLU(
      (conv): Conv1d(128, 128, kernel_size=(3,), stride=(1,), padding=(16,), dilation=(16,), bias=False)
      (conv1x1_out): Conv1d(64, 128, kernel_size=(1,), stride=(1,), bias=False)
      (conv1x1_skip): Conv1d(64, 128, kernel_size=(1,), stride=(1,), bias=False)
    )
    (15): ResidualConv1dGLU(
      (conv): Conv1d(128, 128, kernel_size=(3,), stride=(1,), padding=(32,), dilation=(32,), bias=False)
      (conv1x1_out): Conv1d(64, 128, kernel_size=(1,), stride=(1,), bias=False)
      (conv1x1_skip): Conv1d(64, 128, kernel_size=(1,), stride=(1,), bias=False)
    )
    (16): ResidualConv1dGLU(
      (conv): Conv1d(128, 128, kernel_size=(3,), stride=(1,), padding=(64,), dilation=(64,), bias=False)
      (conv1x1_out): Conv1d(64, 128, kernel_size=(1,), stride=(1,), bias=False)
      (conv1x1_skip): Conv1d(64, 128, kernel_size=(1,), stride=(1,), bias=False)
    )
    (17): ResidualConv1dGLU(
      (conv): Conv1d(128, 128, kernel_size=(3,), stride=(1,), padding=(128,), dilation=(128,), bias=False)
      (conv1x1_out): Conv1d(64, 128, kernel_size=(1,), stride=(1,), bias=False)
      (conv1x1_skip): Conv1d(64, 128, kernel_size=(1,), stride=(1,), bias=False)
    )
    (18): ResidualConv1dGLU(
      (conv): Conv1d(128, 128, kernel_size=(3,), stride=(1,), padding=(256,), dilation=(256,), bias=False)
      (conv1x1_out): Conv1d(64, 128, kernel_size=(1,), stride=(1,), bias=False)
      (conv1x1_skip): Conv1d(64, 128, kernel_size=(1,), stride=(1,), bias=False)
    )
    (19): ResidualConv1dGLU(
      (conv): Conv1d(128, 128, kernel_size=(3,), stride=(1,), padding=(512,), dilation=(512,), bias=False)
      (conv1x1_out): Conv1d(64, 128, kernel_size=(1,), stride=(1,), bias=False)
      (conv1x1_skip): Conv1d(64, 128, kernel_size=(1,), stride=(1,), bias=False)
    )
  )
  (last_conv_layers): Sequential(
    (0): ReLU(inplace=True)
    (1): Conv1d(128, 128, kernel_size=(1,), stride=(1,))
    (2): ReLU(inplace=True)
    (3): Conv1d(128, 1, kernel_size=(1,), stride=(1,))
  )
  (postnet): Postnet(
    (postnet): ModuleList(
      (0): Sequential(
        (0): Conv1d(1, 128, kernel_size=(32,), stride=(1,), padding=(15,), bias=False)
        (1): Tanh()
        (2): Dropout(p=0.5, inplace=False)
      )
      (1): Sequential(
        (0): Conv1d(128, 128, kernel_size=(32,), stride=(1,), padding=(15,), bias=False)
        (1): Tanh()
        (2): Dropout(p=0.5, inplace=False)
      )
      (2): Sequential(
        (0): Conv1d(128, 128, kernel_size=(32,), stride=(1,), padding=(15,), bias=False)
        (1): Tanh()
        (2): Dropout(p=0.5, inplace=False)
      )
      (3): Sequential(
        (0): Conv1d(128, 128, kernel_size=(32,), stride=(1,), padding=(15,), bias=False)
        (1): Tanh()
        (2): Dropout(p=0.5, inplace=False)
      )
      (4): Sequential(
        (0): Conv1d(128, 128, kernel_size=(32,), stride=(1,), padding=(15,), bias=False)
        (1): Tanh()
        (2): Dropout(p=0.5, inplace=False)
      )
      (5): Sequential(
        (0): Conv1d(128, 128, kernel_size=(32,), stride=(1,), padding=(15,), bias=False)
        (1): Tanh()
        (2): Dropout(p=0.5, inplace=False)
      )
      (6): Sequential(
        (0): Conv1d(128, 128, kernel_size=(32,), stride=(1,), padding=(15,), bias=False)
        (1): Tanh()
        (2): Dropout(p=0.5, inplace=False)
      )
      (7): Sequential(
        (0): Conv1d(128, 128, kernel_size=(32,), stride=(1,), padding=(15,), bias=False)
        (1): Tanh()
        (2): Dropout(p=0.5, inplace=False)
      )
      (8): Sequential(
        (0): Conv1d(128, 128, kernel_size=(32,), stride=(1,), padding=(15,), bias=False)
        (1): Tanh()
        (2): Dropout(p=0.5, inplace=False)
      )
      (9): Sequential(
        (0): Conv1d(128, 128, kernel_size=(32,), stride=(1,), padding=(15,), bias=False)
        (1): Tanh()
        (2): Dropout(p=0.5, inplace=False)
      )
      (10): Sequential(
        (0): Conv1d(128, 128, kernel_size=(32,), stride=(1,), padding=(15,), bias=False)
        (1): Tanh()
        (2): Dropout(p=0.5, inplace=False)
      )
      (11): Sequential(
        (0): Conv1d(128, 1, kernel_size=(32,), stride=(1,), padding=(15,), bias=False)
        (1): Dropout(p=0.5, inplace=False)
      )
    )
  )
)
checkpoints directory :  chkpt
Epoch: 1
Steps : 0, Gen Loss Total : 3.683, Sample Error: 0.087, Mel-Spec. Error : 2.977, s/b : 1.517
/home/apei2/.conda/envs/DLPJ/lib/python3.6/site-packages/torch/functional.py:516: UserWarning: stft will require the return_complex parameter be explicitly  specified in a future PyTorch release. Use return_complex=False  to preserve the current behavior or return_complex=True to return  a complex output. (Triggered internally at  /opt/conda/conda-bld/pytorch_1607370169888/work/aten/src/ATen/native/SpectralOps.cpp:653.)
…
